Task3ptb/min_val_loss_reg_model.pt (torch, 7545 bytes, 3 tensors)

model_stack.0.weight f4 [64, 20]
0.4297494 0.21606512 -0.5657845 -0.7607297 -0.78078467 -0.05142605 -0.6826058 -0.052598167
-0.6990079 -0.032758232 0.09963345 0.30844945 0.042791277 -0.73357725 -0.74606746 0.2460747
0.29470843 -0.49173337 -0.36855778 -0.8309072 -0.24815515 -0.46035892 -0.7161858 0.43027455
0.2719157 0.6420804 -0.20948815 0.47260338 -0.6284246 0.27727905 0.33898562 0.53308064
-0.3892204 0.2077267 -0.52675855 -0.37221256 -0.48518568 0.6646635 0.49645773 -0.112315945
-0.4853134 0.13391754 -0.050994385 -0.6982424 -0.7696525 0.10527114 -0.29954872 -0.52565265
-0.20018011 -0.20371246 -0.21060129 -0.011840309 0.028627269 -0.83766025 0.027022751 0.3983277
0.084161766 -0.4479126 -0.3215983 -0.6805037 -0.48211733 0.43432286 -0.23044637 -0.6012315
-0.8003405 -0.4529086 0.12602405 -0.5930304 -0.21106231 -0.17133664 -0.5254629 -0.18058936
0.07086225 -0.48559588 -0.19855253 0.04588208 0.23674802 -0.5215496 -0.27899814 -0.73767275
0.16047563 -0.13804401 0.08187806 -0.3666647 -0.2767588 0.082620405 -0.27256492 -0.033688247
0.09831626 -0.25626293 0.14482957 0.28379488 0.020589743 -0.09484594 0.07116516 -0.093033336
-0.11652164 -0.017439622 -0.029809216 0.01598566 0.19598792 -0.5301345 -0.31519368 0.30676764
-0.13268572 0.43260926 -0.57644135 0.5537067 -0.60436666 0.5712994 -0.036424454 0.58719933
-0.3759669 0.11939222 -0.42770314 -0.6180302 -0.3457422 0.24398726 0.26615724 0.17984746
-0.26878414 -0.52963865 -0.71400374 0.09966932 -0.54323053 0.1327248 -0.6683132 0.38618252
-0.41920435 0.15573995 0.0027457902 0.2535162 -0.7109551 -0.17414677 -0.43626806 -0.4208174
-0.6380604 0.2487177 0.5880248 -0.37089506 -0.31698588 -0.6647732 -0.787815 0.13639913
-0.5617867 -0.24216256 -0.76024044 -0.0032836804 -0.65919 0.3117252 -0.43475875 -0.08600771
-0.44513884 -0.6748741 -0.3221577 -0.52368253 -0.64172924 -0.037232056 0.14444911 -0.8342391
0.24290001 -0.51346236 -0.7165827 0.46297887 0.24445598 0.64087546 -0.2761566 0.29473996
-0.3434782 0.6995033 0.37540993 0.36860093 -0.33390307 0.07676375 -0.26199406 -0.6978256
-0.5893332 0.6735606 0.4177843 -0.088369176 0.4116686 -0.40956017 -0.74065256 0.067439616
0.18574096 0.57743406 -0.17137915 0.6119295 -0.35422963 0.6154187 0.09491908 0.43472144
-0.5554405 0.2029298 -0.4588949 -0.6030432 -0.5618975 0.6151767 0.516511 -0.08699705
-0.17731513 -0.31705374 -0.32430407 0.39584807 -0.10594298 0.48614788 -0.585977 0.5477681
-0.29409486 0.6715215 0.47307518 0.63275033 -0.4459196 -0.04423216 0.033390358 -0.37744746
-0.66244304 0.542951 0.35674948 0.12971944 0.41033214 -0.3898746 -0.4325363 -0.36668384
-0.57595587 0.047003113 -0.14684837 0.13777725 -0.3206998 0.49566337 -0.39738977 0.67754006
-0.39814028 -0.37044987 0.15211914 0.14794274 0.15664634 0.36724117 0.3658914 -0.42338356
-0.09602348 0.018568045 -0.45051137 -0.32658762 -0.498653 0.38525268 -0.2734706 0.16571689
-0.37435114 0.36603084 -0.40225038 0.48966795 -0.28424147 -0.40052655 0.014009364 -0.3623058
00000000: 1d08 dc3e 2d40 5d3e 41d7 10bf 2ebf 42bf
00000010: 81e1 47bf 1fa4 52bd 41bf 2ebf 2d71 57bd
00000020: 2ff2 32bf 7f2d 06bd 9f0c cc3d 16ed 9d3e
00000030: e845 2f3d b8cb 3bbf 47fe 3ebf 02fb 7b3e
00000040: 06e4 963e 7ac4 fbbe 9bb3 bcbe 56b6 54bf
00000050: 621c 7ebe 2ab4 ebbe f457 37bf f24c dc3e
00000060: 8938 8b3e 625f 243f 1084 56be 12f9 f13e
00000070: 6fe0 20bf 85f7 8d3e 868f ad3e f977 083f
00000080: e547 c7be 4fb6 543e a6d9 06bf a592 bebe
00000090: 426a f8be 6327 2a3f b52f fe3e e705 e6bd
000000a0: ff7a f8be ae21 093e 7ddf 50bd 04c0 32bf
000000b0: f207 45bf 6598 d73d 735e 99be 2c91 06bf
000000c0: 04fc 4cbe 009a 50be dda7 57be dbfd 41bc
000000d0: bc83 ea3c e770 56bf d15e dd3c 9cf1 cb3e
000000e0: 015d ac3d cd54 e5be 88a8 a4be 7e35 2ebf
000000f0: 15d8 f6be 915f de3e 22fa 6bbe 4fea 19bf
00000100: 1de3 4cbf a3e3 e7be 730c 013e d7d0 17bf
00000110: b820 58be df72 2fbe bd84 06bf 6bec 38be
00000120: 3a20 913d 06a0 f8be 5b51 4bbe d9ee 3b3d
00000130: 136e 723e 4684 05bf d8d8 8ebe 1fd8 3cbf
00000140: b953 243e 695b 0dbe afaf a73d 7abb bbbe
00000150: 54b3 8dbe e334 a93d a18d 8bbe b0fc 09bd
00000160: 095a c93d e534 83be 344e 143e 904d 913e
00000170: d2ab a83c 973e c2bd 0abf 913d 4388 bebd
00000180: e6a2 eebd 8add 8ebc 7532 f4bc 5cf4 823c
00000190: 0fb1 483e e5b6 07bf 1161 a1be a610 9d3e
000001a0: c4de 07be f67e dd3e a991 13bf b9bf 0d3f
000001b0: c6b7 1abf ad40 123f cf31 15bd b252 163f
000001c0: bc7e c0be e983 f43d e8fb dabe 3a37 1ebf
000001d0: 1f05 b1be ccd7 793e c345 883e ef29 383e
000001e0: 139e 89be 6696 07bf f3c8 36bf 6e1f cc3d
000001f0: 2811 0bbf 03e9 073e 9316 2bbf b7b9 c53e
00000200: f4a1 d6be 4b7a 1f3e b7f2 333b e0cc 813e
00000210: 2701 36bf 8853 32be 875e dfbe 6175 d7be
00000220: ed57 23bf daaf 7e3e cb88 163f f5e5 bdbe
00000230: f94b a2be 942e 2abf 3eae 49bf 37ac 0b3e
00000240: 41d1 0fbf 76f9 77be 1e9f 42bf 0433 57bb
00000250: adc0 28bf 729a 9f3e b398 debe cf24 b0bd
00000260: 3de9 e3be 8dc4 2cbf dbf1 a4be 0f10 06bf
00000270: 5e48 24bf a480 18bd 78ea 133e b290 55bf
00000280: c8ba 783e 4572 03bf f771 37bf 910b ed3e
00000290: ab52 7a3e 6a10 243f 6664 8dbe 28e8 963e
000002a0: 60dc afbe a612 333f bb35 c03e 43b9 bc3e
000002b0: 58f5 aabe 5036 9d3d 1624 86be b3a4 32bf
000002c0: 8ade 16bf 786e 2c3f d3e7 d53e e6fa b4bd
000002d0: 3ac6 d23e dfb1 d1be 689b 3dbf c81d 8a3d
000002e0: e132 3e3e b8d2 133f 047e 2fbe 69a7 1c3f
000002f0: 965d b5be 148c 1d3f ef64 c23d cf93 de3e
00000300: 5931 0ebf d4cc 4f3e 46f4 eabe 0a61 1abf
00000310: 84d8 0fbf 387c 1d3f 113a 043f 822b b2bd
00000320: 1992 35be de54 a2be 2f0b a6be 99ac ca3e
00000330: a2f8 d8bd 60e8 f83e 9702 16bf 883a 0c3f
00000340: 9a93 96be d5e8 2b3f e936 f23e edfb 213f
00000350: 934f e4be c82c 35bd 54c4 083d cb40 c1be
00000360: de95 29bf d6fe 0a3f dea7 b63e 2cd5 043e
00000370: 0e17 d23e a59d c7be 6675 ddbe fcbd bbbe
00000380: d871 13bf 5686 403d 6b5f 16be 7b15 0d3e
00000390: c432 a4be 97c7 fd3e ac76 cbbe 4473 2d3f
000003a0: 0bd9 cbbe 9bab bdbe 1fc5 1b3e 4d7e 173e
000003b0: e667 203e 0907 bc3e 1e56 bb3e bbc5 d8be
000003c0: f5a7 c4bd 031c 983c 6da9 e6be 7e36 a7be
000003d0: 724f ffbe d73f c53e 5704 8cbe b0b1 293e
000003e0: f4aa bfbe 6568 bb3e c3f3 cdbe c2b5 fa3e
000003f0: 1988 91be d111 cdbe 8887 653c 2580 b9be

model_stack.0.bias f4 [64]
0.5770724 0.5344814 0.7144345 0.5485163 -0.11715153 0.7042506 0.4801867 0.5275713
0.37904078 0.6973175 0.7969163 0.6302826 0.4141441 0.6227674 0.52413505 0.55354
0.57126635 0.57377267 0.72280425 0.53965414 0.5657642 0.6811908 0.8639341 0.73504615
0.90654147 0.6270904 0.7363453 0.63550884 0.7339706 0.781249 0.33881736 0.81167233
0.5529639 0.5713791 0.77888304 0.7358636 0.26963124 0.72111845 0.49290806 0.7249068
0.5100954 0.7549968 0.5314938 0.48403147 0.5250295 0.66869134 0.61712193 -0.17903312
0.7068402 0.69533277 0.84811324 0.48955688 0.39197025 0.6375714 0.6659485 0.54627126
0.7443035 0.8441971 0.66865784 0.69706494 0.5077464 0.7873778 0.7632584 0.7475734
00000000: 04bb 133f c6d3 083f 2ee5 363f 906b 0c3f
00000010: 24ed efbd c449 343f 08db f53e ea0e 073f
00000020: a211 c23e 6683 323f b502 4c3f 335a 213f
00000030: b20a d43e af6d 1f3f b72d 063f ccb4 0d3f
00000040: 833e 123f c4e2 123f b309 393f c626 0a3f
00000050: ecd5 103f 8562 2e3f c92a 5d3f fc2b 3c3f
00000060: 1a13 683f ff88 203f 2081 3c3f b5b0 223f
00000070: 7fe5 3b3f efff 473f 7879 ad3e c2c9 4f3f
00000080: 0b8f 0d3f e745 123f e164 473f 8f61 3c3f
00000090: 1b0d 8a3e 389b 383f 725e fc3e 7e93 393f
000000a0: 9d95 023f 7847 413f fa0f 083f f9d2 f73e
000000b0: 5568 063f 5b2f 2b3f b4fb 1d3f 7554 37be
000000c0: 7bf3 343f 5401 323f f31d 593f 33a7 fa3e
000000d0: 53b0 c83e e137 233f 9a7b 2a3f 6fd8 0b3f
000000e0: ad8a 3e3f 4d1d 583f 292d 2b3f d972 323f
000000f0: abfb 013f 9791 493f e764 433f f860 3f3f

model_stack.2.weight f4 [1, 64]
0.61369216 0.63813436 0.53331494 0.6137245 0.13760541 0.6460723 0.60461897 0.650894
0.6362812 0.6074267 0.57012737 0.50303125 0.4325204 0.50404614 0.64133763 0.48029155
0.58583355 0.557211 0.46235403 0.6059819 0.5495294 0.5049749 0.48706177 0.47323632
0.53306955 0.58424693 0.6828536 0.5593293 0.5505133 0.51945704 0.5377003 0.5676418
0.6276215 0.5996887 0.5176106 0.5637435 0.29795772 0.6197065 0.53218204 0.5283097
0.6345069 0.51412463 0.5193455 0.67335343 0.5572237 0.52923524 0.55641484 0.085757345
0.5757237 0.54591316 0.5244002 0.58487594 0.580142 0.63333154 0.5107989 0.61990273
0.6582598 0.524501 0.5440409 0.52677065 0.5902367 0.6185259 0.49497387 0.5806391
00000000: ee1a 1d3f c65c 233f 5487 083f 0d1d 1d3f
00000010: 6fe8 0c3e ff64 253f 4fc8 1a3f fda0 263f
00000020: 53e3 223f 5180 1b3f def3 113f a8c6 003f
00000030: 5073 dd3e 2b09 013f b42e 243f c6e8 f53e
00000040: 30f9 153f 61a5 0e3f abb9 ec3e a121 1b3f
00000050: f5ad 0c3f 0946 013f 2960 f93e 084c f23e
00000060: 3f77 083f 3591 153f 7ecf 2e3f 3430 0f3f
00000070: 71ee 0c3f 23fb 043f baa6 093f f950 113f
00000080: cdab 203f 3385 193f 2182 043f 7e51 103f
00000090: ea8d 983e 16a5 1e3f 153d 083f 4e3f 073f
000000a0: 0b6f 223f ac9d 033f d4f3 043f e460 2c3f
000000b0: 36a6 0e3f f67b 073f 3471 0e3f 8ca1 af3d
000000c0: a162 133f f7c0 0b3f 173f 063f 6eba 153f
000000d0: 3084 143f 0422 223f b7c3 023f f2b1 1e3f
000000e0: b783 283f b345 063f 4446 0b3f 71da 063f
000000f0: c119 173f b757 1e3f 376d fd3e c4a4 143f
